model/model.pth (torch, 16787 bytes, 4 tensors)

linear1.weight f4 [256, 11]
000000 04 db 1b be c0 d6 6d bc 19 cb 1e be 96 f7 81 be
       -0.15220267 -0.014516532 -0.15507163 -0.25384206
000010 ea 34 35 3e be 1a 80 be 2a a6 29 be 6c 28 bf 3d
       0.17695966 -0.25020403 -0.16567293 0.09333882
000020 cc a5 82 3e 75 cc c6 3d 83 a6 97 be 97 b3 36 be
       0.25517118 0.09706966 -0.29619226 -0.17841946
000030 b0 4b 92 be 3b 7b 4e 3e 30 2f 52 be 56 5e 56 3e
       -0.2857337 0.20164196 -0.20525813 0.20934424
000040 a6 ed 39 be 0c 9c 84 bd 29 d8 15 3d 64 88 c0 3c
       -0.18157062 -0.06475076 0.0365831 0.023502536
000050 ed 7b 81 3e 7c 3f b0 3d 95 41 64 3d 50 e5 4c 3e
       0.2528986 0.08605859 0.055726606 0.20009351
000060 4b 6e b9 3d d3 d9 52 3e 00 4a 40 bb 5a 3f 3a 3e
       0.0905424 0.20590906 -0.0029340982 0.18188229
000070 5c a9 b9 bd 40 5c eb bc 53 64 11 be ac 09 3c be
       -0.09065506 -0.028730512 -0.14198427 -0.18363065
000080 6c 78 91 3d b0 a6 18 be 00 83 f3 bd 48 21 4c bb
       0.07103047 -0.14907336 -0.11890221 -0.0031147767
000090 55 d8 93 be 72 e0 a3 3d 9e c6 97 be 28 19 ce ba
       -0.28875986 0.08001794 -0.2964372 -0.001572405
0000a0 d9 bf 9f 3d cd a7 b7 bd e9 cd 60 bd f4 57 7f bd
       0.07800264 -0.08967552 -0.05488387 -0.062339738
0000b0 67 08 01 be aa 51 c9 3d 3b ef 47 3d 2a a3 57 3e
       -0.12600861 0.09830029 0.048812132 0.21058336
0000c0 cb 6d 6b 3e e9 48 ef bc a8 6b 8e be 55 03 89 be
       0.22991101 -0.029209571 -0.2781651 -0.26760355
0000d0 f8 9c ed bd 3d 33 97 3e f3 20 f5 3d 51 69 82 3e
       -0.11602205 0.2953128 0.11969175 0.25470975
0000e0 95 90 8b be ee 67 46 be 07 ea 56 3e 1d a0 89 be
       -0.27258745 -0.19375584 0.20987712 -0.2687997
0000f0 e3 fb 09 bd e7 0e a2 bd 64 ba 08 be c0 f7 5b 3e
       -0.033687484 -0.07912999 -0.13352352 0.21481228
000100 45 ab 31 be a9 da 1f be 6a 11 90 bd a4 83 20 3e
       -0.1735049 -0.15610756 -0.070345715 0.15675217
000110 b0 8d 10 bd b8 ef ec 3d be e7 65 be 00 28 9a bc
       -0.035291374 0.1156916 -0.22451684 -0.018817902
000120 00 d1 fd 3a d0 eb b7 bc 16 da 69 be 54 fe b7 bd
       0.0019364655 -0.022451311 -0.228371 -0.08984056
000130 67 46 89 be 7e 5d 1e 3c 6c 88 39 3e 88 fe 86 3e
       -0.26811525 0.009665845 0.18118447 0.26366067
000140 3b ec 7e 3e e1 05 2b be f9 a0 08 3e d8 67 0d 3e
       0.24894802 -0.16701461 0.13342656 0.13809144
000150 34 81 c6 3d b8 97 ed 3c 51 1d 0d bd 0a 49 8c be
       0.09692612 0.02900301 -0.034451786 -0.27399474
000160 39 48 d1 3d 36 c9 80 be 86 69 54 be e6 47 e2 bd
       0.102188535 -0.25153512 -0.20743379 -0.1104887
000170 46 55 9a 3d e8 36 30 be f8 00 55 be 92 b6 ed 3d
       0.07535796 -0.17208445 -0.20801151 0.11607088
000180 ca 3c 8d 3e 52 1b 94 be 08 b6 2d 3e 27 1d 1e bd
       0.2758544 -0.28927094 0.1696397 -0.03860202
000190 18 8f d5 bd 26 90 54 be e0 ed 9d bd 54 79 22 bd
       -0.104276836 -0.20758113 -0.07711387 -0.03966649
0001a0 1f b8 0e 3d e6 e1 3c 3e 2e 2c 38 3e 59 6b 08 be
       0.03484356 0.18445548 0.17985603 -0.133222
0001b0 78 8d 92 be 6a 10 92 3e be d9 56 be ca f0 80 be
       -0.28623557 0.28528148 -0.209815 -0.25183707
0001c0 cc 47 27 3e b2 e4 59 be 9b dc ff bd 6b cc 5b be
       0.16335982 -0.21278647 -0.12493249 -0.21464698
0001d0 40 14 79 3e 96 0d 71 3e b6 cb 49 be c1 17 ac 3c
       0.24324131 0.23540339 -0.19706616 0.02100742
0001e0 6d ef 8b 3e f8 99 4c 3e f6 f0 82 bd 48 5b 85 3d
       0.27331105 0.1998061 -0.06393616 0.06511551
0001f0 18 9b 07 be dc 56 8b be 98 f7 80 3d 0c 4a 43 be
       -0.13242757 -0.27214706 0.06297225 -0.19071215
000200 dc da 82 be 9d 5e 93 be 88 1f a7 3d dc 4a 6c bd
       -0.255576 -0.28783122 0.08160311 -0.05768858
000210 72 8c c8 3d 1c c8 79 3e b0 56 9b 3c 98 18 6d 3d
       0.09792413 0.24392742 0.018962234 0.057884783
000220 c8 63 9c 3e 70 3a fe 3c 94 38 e9 bd 31 30 28 3d
       0.30544877 0.031033725 -0.113877445 0.041061584
000230 39 f2 d4 bd 48 b9 5d be c8 4f 23 3d d1 05 c3 3d
       -0.10397763 -0.2165271 0.039871007 0.09522594
000240 9f fe 6b be 9a f6 f9 3d 04 a1 45 be 21 5b 7e be
       -0.23046349 0.12205239 -0.19299704 -0.2483945
000250 a2 ae 1f be e6 9e 67 3e 78 63 bd 3d e0 c4 79 3d
       -0.15593961 0.22619209 0.09247488 0.06097877
000260 e3 d8 83 3d f2 c7 04 3e 72 16 ac bd a0 ae 06 3d
       0.06437852 0.12966898 -0.084027186 0.03288138
000270 7f 47 98 be ad 6f 43 be 94 f1 96 be 25 03 8d be
       -0.29742047 -0.1908557 -0.29481184 -0.27541462
000280 5b cf 32 be 0a df d7 3c 48 54 89 be 70 aa 4c 3e
       -0.17461912 0.02635147 -0.26822114 0.19986892
000290 f2 c1 21 3d c7 95 85 3e 00 9d b0 bc 43 2e f3 bd
       0.0394916 0.26090834 -0.021559238 -0.11874058
0002a0 dc 8e 2c be 15 3e 89 bd 1b 31 d0 bc c9 9c dd 3d
       -0.16851372 -0.06701294 -0.02541404 0.1082092
0002b0 74 70 41 be d3 c8 dc 39 7f 7d ca bd a1 6e 17 3e
       -0.18890554 0.00042111296 -0.09887218 0.14788295
0002c0 6c 7f 97 3e 10 87 50 3e 2f 2e 31 3e b8 8b dd 3d
       0.29589403 0.20364022 0.17302774 0.10817665
0002d0 35 0f 0e 3e a3 d4 b7 bd 2b 49 53 be e5 30 8c 3e
       0.13872989 -0.08976104 -0.2063338 0.27381054
0002e0 e0 36 ce bd f4 c0 a2 bd 4f 61 7e 3d d1 a4 68 bd
       -0.1006906 -0.07946959 0.06210452 -0.056797806
0002f0 2f 7f 28 be c0 2c 5b 3d ba ac 5e 3e 59 af 00 bd
       -0.16454767 0.053509474 0.21745577 -0.031417225
000300 10 34 e4 3b ab d4 4c bd 25 ff 8a be 52 7c 65 3e
       0.006964214 -0.050007503 -0.27147785 0.22410706
000310 ca 6d 25 be 20 38 27 3e 0a 6b 1a 3e 31 f0 4b 3e
       -0.16155162 0.16330004 0.15079895 0.19915845
000320 db cb 4c 3e 9d 45 4e be 80 38 03 3e 1d 70 3e 3e
       0.1999964 -0.20143743 0.12814522 0.18597455
000330 44 69 de bd a1 9b 30 be d2 a2 b1 bd 2e 04 a0 3d
       -0.108599216 -0.17246868 -0.08673634 0.07813297
000340 ec 51 95 be 0e 54 34 3e d2 f6 1f be cf 88 17 be
       -0.29164064 0.1761019 -0.15621498 -0.14798282
000350 1f 8c 51 3e 45 42 53 be 88 6f 12 bd 7b 36 27 3d
       0.20463608 -0.20630749 -0.035750896 0.04082344
000360 b6 2c 7e 3e 00 c1 8b bb 2f 09 42 be 6d c5 87 be
       0.24821743 -0.0042649508 -0.18948816 -0.2651781
000370 94 49 13 3e 28 0b 7c be e2 94 0b be 5d 72 ba bd
       0.14383537 -0.24613631 -0.13631013 -0.09103844
000380 d9 08 5c 3e 96 a7 26 3e 14 0b 7c be 93 e6 84 3d
       0.2148775 0.16274866 -0.24613601 0.06489291
000390 af 28 65 3e 60 d9 5b be b0 ba 6d 3e ee 55 53 3e
       0.22378801 -0.2146964 0.23215747 0.20638248
0003a0 b0 a3 d7 3c 1e e7 70 3e 24 75 89 ba ab 09 40 bd
       0.02632317 0.23525664 -0.0010487181 -0.04688422
0003b0 03 ee 95 be 8a c8 7f 3e 4e 72 74 3e 95 13 1b be
       -0.2928315 0.24978843 0.23871729 -0.15144189
0003c0 3e e1 e0 bd e0 40 5d 3d 02 ca 8f bd e5 14 5d 3e
       -0.109804615 0.054016948 -0.07020952 0.21590002
0003d0 2d 24 f5 bd 07 8e 57 be e4 33 50 be d5 1d 2f 3e
       -0.119697906 -0.21050273 -0.20332295 0.17101224
0003e0 5d 5a 7e be 73 6e 98 3b 5c 61 e4 3d bf a0 67 3e
       -0.24839158 0.0046518384 0.11151382 0.22619914
0003f0 89 c8 83 be 10 d5 d9 3d da 1a 66 3e 82 65 30 3e
       -0.25738934 0.106363416 0.2247118 0.17226222

linear1.bias f4 [256]
000000 21 f6 85 be 1a 9e 7a be 66 dc 35 be 1b bd ee 3d
       -0.26164344 -0.24474373 -0.17759857 0.11657163
000010 58 f2 cb 3d 0b 05 95 3e 20 20 eb bd ab cd d1 bd
       0.09958333 0.2910541 -0.11480737 -0.10244306
000020 e8 06 06 be 85 b4 92 3e d1 a1 09 be 2c 7d 61 bd
       -0.13088572 0.2865335 -0.13440634 -0.055051014
000030 fb e3 45 be 71 cc 34 bd 40 ba fd 3d 81 fc cd 3d
       -0.19325249 -0.044140283 0.1238904 0.10057927
000040 8b aa 22 be 92 75 81 be 4c 69 89 3e 64 30 85 be
       -0.1588537 -0.25285012 0.26838148 -0.26013482
000050 6f 6e 42 be 61 34 df bd 68 44 90 3e a8 95 42 3e
       -0.1898744 -0.10898662 0.2817719 0.19002402
000060 8c 92 97 3e 66 39 61 3e 48 e7 5e be 22 a6 e5 bd
       0.29603994 0.21994552 -0.21767914 -0.11213328
000070 56 29 32 3e 3e af 22 be 08 5a 41 3e 74 3d 97 be
       0.17398581 -0.15887162 0.18882 -0.29539073
000080 54 04 25 be 31 7a b8 bd cc ae 2f 3d ee ab 07 bd
       -0.16114932 -0.09007681 0.04289131 -0.03312295
000090 d9 39 7b 3e 7c b4 5c be c5 eb 86 3e 76 14 15 3e
       0.24533786 -0.21553224 0.26351753 0.14558586
0000a0 bc f5 95 bc 90 aa 4b bd 79 c0 53 be f3 3e 53 3e
       -0.018305652 -0.049723208 -0.20678891 0.20629482
0000b0 1e 6a 8d bc ba 58 77 be f5 f9 c2 3d d4 b6 4c 3b
       -0.017262515 -0.2415494 0.09520332 0.0031236904
0000c0 d4 ad fe 3d bf 7b 71 be 44 ed 85 be e0 1a 3e 3d
       0.12435499 -0.23582362 -0.26157582 0.04641235
0000d0 14 42 0c 3e f8 36 28 be 1c 46 ed 3d 94 d6 62 bc
       0.13697082 -0.16427219 0.11585638 -0.013845105
0000e0 f5 47 fc bd c7 c0 4c be 27 f4 1a 3e d4 9e f2 3d
       -0.12318412 -0.19995414 0.15132199 0.118467
0000f0 43 b1 93 3d 7c 78 cb bd 5f 1d e5 bc 0b 6c 0a 3d
       0.07211544 -0.0993509 -0.027968107 0.033794444
000100 86 bc 7b 3d 0d 61 94 3e 32 06 1b 3e cc 71 cb bc
       0.061459087 0.28980294 0.15139082 -0.024834536
000110 5b 36 7c be 4c 2d 85 be 52 b6 f9 3d 4a 30 6c be
       -0.2463011 -0.2601112 0.12192978 -0.23065296
000120 39 35 71 3c 97 13 a0 3d ce 36 bf bc f9 2c 8f be
       0.014722162 0.078162365 -0.023341563 -0.27964
000130 2c 31 22 3e 7d 07 e2 3d 52 79 92 be ce 1c 82 3e
       0.1583907 0.110365845 -0.28608185 0.254126
000140 77 25 b7 bd 61 c8 1c 3e 65 ce 87 3e 91 6a 7b 3e
       -0.08942693 0.15310813 0.26524654 0.2455237
000150 48 cc 76 be fb ec 82 be f3 d7 54 3d 14 0d 1d 3e
       -0.24101365 -0.25571427 0.051963758 0.1533702
000160 8f ec 6c 3e e2 2f f2 bd c4 75 82 3e a8 fe 80 3c
       0.23137115 -0.11825539 0.25480473 0.01574643
000170 f6 4f eb bb 63 d5 97 3d 01 56 34 be 0a 17 2d be
       -0.007181163 0.07413747 -0.17610933 -0.1690332
000180 65 86 6b 3e 8c 81 51 be ea cc b7 bd 78 12 5e 3e
       0.23000486 -0.20459574 -0.08974631 0.21686733
000190 a4 d3 86 be 6d ea 1e be 36 18 99 be df df c5 3d
       -0.26333344 -0.15519114 -0.29901284 0.09661841
0001a0 44 2f 56 3e 30 25 80 3c 04 92 8b be 49 e3 87 bd
       0.20916468 0.015642732 -0.2725984 -0.06635148
0001b0 08 b2 45 be a2 73 0d be e9 2a a9 bc f6 b2 1e 3e
       -0.19306195 -0.13813642 -0.020650344 0.15497956
0001c0 66 f4 5f be f3 1b 20 3d 99 9d e7 bc 1b e6 38 3e
       -0.21870574 0.039089154 -0.02827339 0.18056528
0001d0 26 87 36 be 46 56 29 3e 0d 5d 35 be 40 e9 20 be
       -0.17824993 0.16536817 -0.17711277 -0.15713978
0001e0 f5 de 07 3e 06 bc 11 3e 3e 71 19 bd dc e4 1c 3e
       0.13268645 0.14231881 -0.03746151 0.15321678
0001f0 97 8d 3f 3c f9 4a 0c 3e e2 fa 04 3d d9 90 64 3e
       0.0116914725 0.13700475 0.032465823 0.2232088
000200 42 27 94 be 0f 0d 3e be 60 1e 08 be c2 ce 1a 3d
       -0.289362 -0.18559669 -0.13292837 0.037794836
000210 32 2d 7b 3d fd 03 be bd 38 99 8e 3e 35 ae 79 be
       0.0613224 -0.092781045 0.27851272 -0.24382861
000220 2b 27 01 3d bb 0c 1b 3d db 3d 4e 3e 93 7a 92 be
       0.031531494 0.037853938 0.20140783 -0.28609142
000230 f6 1b 21 be 95 48 9e bd 69 03 fd 3d bb 22 47 3e
       -0.15733323 -0.07728688 0.12354166 0.19446842
000240 06 fb 8f bd db 5b 5f be 34 d4 76 be a4 65 eb bd
       -0.07030301 -0.21812384 -0.24104387 -0.11493996
000250 10 f6 e5 3d 5f 0c e6 bd 17 83 87 be 98 ba 98 be
       0.11228573 -0.11232828 -0.264672 -0.2982986
000260 64 7e 46 3d 4a fb 29 bd 3b 4e 3b be ac 9f 3b 3e
       0.04846038 -0.041499414 -0.18291561 0.18322629
000270 b8 f9 b9 3c ba 1b 29 3e ea 33 1f be 37 52 8e 3e
       0.022702083 0.16514483 -0.15547147 0.277971
000280 2e c8 74 3e f2 af 33 be f3 a9 89 bd 47 7f 35 3e
       0.23904487 -0.17547587 -0.06721868 0.17724334
000290 b4 c3 87 be 7c db a2 bc dc 23 8d bd 2c 7f 23 be
       -0.26516497 -0.019880049 -0.06891605 -0.15966481
0002a0 89 68 00 be 23 f2 87 be 34 9b 81 be 62 05 48 3e
       -0.12539877 -0.26551923 -0.25313723 0.19533303
0002b0 25 89 9b bc df f7 13 3e ff 91 20 3e 14 a6 23 be
       -0.018986294 0.14450024 0.15680693 -0.15981323
0002c0 6f b6 82 be 3d f7 29 be 05 81 37 3d 9c d1 16 bd
       -0.2552981 -0.1659822 0.044800777 -0.036820993
0002d0 57 78 54 3d 2d ab 33 3e 55 ab b5 3d d0 fe 4b bd
       0.051872578 0.17545767 0.088705696 -0.049803555
0002e0 e6 60 90 be 0b cb 42 be 2f 9e 97 be 33 08 bb 3d
       -0.28198928 -0.19022767 -0.29612872 0.09132423
0002f0 68 9f 4e bd b3 69 ae bd 28 42 06 3e c8 6c a6 bd
       -0.05044499 -0.08516254 0.13111174 -0.08126217
000300 48 70 56 be b4 9b 1a bc 9f 32 96 3e 1c 2d 89 3e
       -0.2094127 -0.009436537 0.29335496 0.26792228
000310 b9 79 a5 3d 9b a4 cf 3d 2c f3 81 3e 7b 8a 59 be
       0.080798574 0.10138818 0.25380838 -0.21244232
000320 a6 9b 56 be 71 c4 3b 3d 58 20 56 3e 08 a7 12 be
       -0.20957813 0.045841638 0.20910776 -0.1432153
000330 ce a1 95 be a2 d4 82 3e 26 e3 1a bd 17 0c 46 3e
       -0.2922501 0.2555285 -0.037814282 0.1934055
000340 d5 13 0d 3e 8b 8a 00 be f3 5c 1d 3e 7a 92 4e 3e
       0.13777097 -0.1255285 0.15367489 0.20173064
000350 4f a1 61 3e 2f 9f a0 bd a4 ee e7 bd d8 c6 cd bb
       0.2203419 -0.07842862 -0.11324814 -0.0062798075
000360 59 39 53 be 45 0b 07 3e 22 ff 87 3e a7 d8 99 3d
       -0.20627345 0.13187893 0.26561838 0.07512026
000370 53 a8 3d be 8a 5d 82 bd 3c 2f 32 be 19 33 64 3e
       -0.18521242 -0.063654974 -0.17400831 0.22285117
000380 8a 1d 98 bd 44 61 63 be f8 73 86 be e5 f6 5c be
       -0.07427509 -0.22205073 -0.26260352 -0.21578558
000390 2f 40 2d bd a1 a4 11 3e 9c ff ae 3d b4 ec d5 bd
       -0.04229754 0.14222957 0.08544847 -0.10445538
0003a0 11 87 20 be 5d 2a 95 be b6 ff 2a be 72 0a 96 be
       -0.15676524 -0.29133883 -0.16699108 -0.29304844
0003b0 4d 45 b1 bd 3f 09 81 bb 97 6a 86 3c ce 7b 3b 3e
       -0.08655796 -0.00393787 0.016408248 0.18308946
0003c0 da 5f e1 bd 1a 7c b7 bd 2a 92 06 3e 44 59 1b be
       -0.1100461 -0.08959217 0.13141695 -0.15170771
0003d0 12 6b df bd 5a 25 94 be e5 d0 39 3e d0 81 64 3d
       -0.10909094 -0.28934747 0.18146093 0.05578786
0003e0 a3 90 3c 3e 39 3d d5 bd 5c f7 99 3e d5 8d 7b 3e
       0.1841455 -0.10412068 0.30071533 0.24565823
0003f0 46 ca db 3d 5b eb aa 3d aa 95 58 bd 4b d7 49 3e
       0.1073194 0.08345672 -0.052877106 0.19711034

linear2.weight f4 [3, 256]
000000 96 5e 0e 3d b2 91 0c bc 1b 2d 17 bd a8 ec 8e 3c
       0.034758173 -0.008579658 -0.03690825 0.01744683
000010 64 66 08 bd d4 18 47 3d b0 c1 34 3c 12 89 4f bb
       -0.033300772 0.048607662 0.011032507 -0.0031667394
000020 bf 32 6b bc c2 5e 54 3d 30 cd 36 3d 00 c2 81 bb
       -0.0143553605 0.05184818 0.044629276 -0.003959894
000030 b4 0b 3f bc 89 92 73 3d ed 91 35 3d 3b 6f 89 bc
       -0.011660505 0.05946592 0.04432862 -0.016776672
000040 92 2a e0 3c 52 71 d2 bc f6 3b 43 bd 68 d7 74 38
       0.02736405 -0.025688801 -0.047664605 5.8374746e-05
000050 fa a6 37 bd 79 dd fd bc 35 2c 4e 3b 92 2d 33 3d
       -0.044836976 -0.030989395 0.0031459455 0.04374463
000060 c0 c1 34 3d 52 67 57 3d be 4c 17 bd e2 3b 71 3d
       0.044130087 0.05258877 -0.03693842 0.058895
000070 ff ac ae 3c bd 63 c6 3c ff 7f 18 3c f3 50 6b bd
       0.021322725 0.02421748 0.00930786 -0.057450246
000080 0f b2 22 bc 39 ed 11 3d b6 0e 32 bd b0 8f 4a 3d
       -0.009930148 0.035626624 -0.04347106 0.049453437
000090 ab 4a 11 bc 6c 5c 11 3d fe f9 5e 3d 1b 33 b3 bc
       -0.0088679 0.03548853 0.05443763 -0.021874955
0000a0 0e e5 59 3c fd 57 f2 38 67 8b 0a 3d fa 7b 49 bc
       0.01329924 0.00011555848 0.03382435 -0.012297625
0000b0 f1 50 be bb 76 72 1e bd a7 9a 4b 3d 08 bd 19 bd
       -0.005807989 -0.038683377 0.049708035 -0.03753379
0000c0 ae 28 41 bc 9f f3 50 3d 93 7f 44 bb d0 fe 08 bc
       -0.011789484 0.051013585 -0.0029983267 -0.008361533
0000d0 32 74 0e bd 4e 44 64 bd ea 1c 50 3d a9 f1 0e bd
       -0.03477878 -0.055729203 0.050808825 -0.034898434
0000e0 2c 72 a9 3c 22 09 f4 bc ef f5 62 3d 3d ce ac 3c
       0.020684324 -0.029789511 0.05541032 0.021094436
0000f0 34 99 31 3d db f0 36 bd e6 b9 3e 3d 89 29 d8 3a
       0.043358997 -0.04466329 0.046564005 0.0016491871
000100 35 b4 b4 3c ef f4 24 3d 92 84 cd 3b de 0a 73 3d
       0.022058586 0.04027265 0.006271907 0.059336536
000110 7c a3 ef bc 78 b8 37 bc cd 38 24 bd dc 00 09 3d
       -0.02925276 -0.011213414 -0.040093232 0.033448085
000120 e1 2b 9d bc d2 2f 4b bd 0d f7 71 bd 37 8e 11 3d
       -0.019185962 -0.049606152 -0.059073497 0.035536017
000130 ef 71 1b 3d 96 56 9d bc 8f 6c 9e 3c 79 b4 f1 3c
       0.037950452 -0.019206326 0.019338874 0.029505001
000140 83 05 11 bd 2e 80 81 3c 91 4e a6 3c ae 1f 2d 3d
       -0.035405647 0.015808191 0.020301135 0.04226654
000150 cf a3 8f 3c a8 28 9e bc 0a b1 8a 3c 66 cd 04 3c
       0.017534165 -0.019306496 0.016930122 0.008105611
000160 4f 6c 08 3c 65 bc 0c bd 12 b8 4c 3d b2 73 0b bc
       0.008326604 -0.034359355 0.04998023 -0.008511471
000170 3d 8c 65 bc 8a bc 69 3d fe 02 47 bd 6e ad 55 bd
       -0.014010486 0.05706457 -0.048586838 -0.05216735
000180 fa dd 35 3d ec fd 8c bc 7e 67 49 bd a1 d1 df bb
       0.044401146 -0.017210923 -0.049170963 -0.0068304096
000190 2d 63 9f 3c d8 d4 2a 3c f8 c9 ac 3c e6 25 c9 3c
       0.01945647 0.0104267225 0.0210924 0.024554204
0001a0 6d fe 73 bc 52 d4 15 bd 15 6e 49 3c 42 4a 29 3c
       -0.014892203 -0.036579438 0.012294312 0.010332646
0001b0 5d 86 ec 3c bf c1 d8 3c 84 d7 f4 3c 3c 50 25 bd
       0.028872663 0.026459573 0.029887922 -0.04035972
0001c0 ba 6a 40 3d d8 0b 4a bd 51 30 c9 bc 4f 8e c9 bc
       0.046976782 -0.0493277 -0.024559172 -0.02460399
0001d0 6a 08 e1 bc d9 38 6c 3d cc 00 61 bd 9f ae 1b bd
       -0.027469832 0.0576714 -0.0549324 -0.03800833
0001e0 dd 6a 60 bd c3 03 54 bc 93 eb 4b bd c2 fb 4b bd
       -0.054789413 -0.01294035 -0.049785208 -0.04980064
0001f0 1e 23 4c bd 80 9b 72 bd 77 55 1d 3d b6 54 12 bd
       -0.049838178 -0.059230328 0.038411584 -0.035725318
000200 9a 48 7f bd 69 ad 76 3d f8 f2 31 bd 4a 5a 31 bd
       -0.062325098 0.06022397 -0.043444604 -0.043298997
000210 93 a6 8b bc 37 db 57 bd 43 8d d1 3c 33 1a 23 bd
       -0.017047202 -0.052699294 0.025580054 -0.039819907
000220 c2 5a 36 3d 19 5b a2 bb aa c3 f9 bc 0c 49 74 bd
       0.044520147 -0.0049547073 -0.030488808 -0.059639975
000230 6e 65 27 3d f2 f7 f3 3c 19 2f 41 bc bf c6 56 bd
       0.040868215 0.029781315 -0.011791014 -0.052435633
000240 64 14 13 3d a9 83 03 bb 86 cc b5 3c 0e 40 3e bb
       0.035908118 -0.002006749 0.022192251 -0.0029029879
000250 62 11 2a 3b ee 7e 78 3b b9 fe 1b 3d ff a3 e2 3c
       0.0025950302 0.0037917453 0.03808472 0.02766609
000260 b5 2b 25 3d 51 bc 44 3c a2 8c 78 3d e2 09 4e bb
       0.040324885 0.012007789 0.060680993 -0.0031438996
000270 c0 64 8c 3c 9c 18 5d bc 90 0f 62 bc 8e 36 bb 3c
       0.017137885 -0.013494637 -0.013797656 0.022853162
000280 47 77 3b bd ae 00 21 bb f4 04 3a 3b 84 d2 de 3c
       -0.04576805 -0.0024567056 0.00283843 0.027199991
000290 e6 20 0a 3c 8d dd 74 bd 00 e3 c2 3c be 2e 92 3c
       0.008430695 -0.0597816 0.023789883 0.017844554
0002a0 15 c0 0c bd 92 61 09 3d 6e 0f 7c 3d 01 ca 9f 3b
       -0.03436287 0.033540316 0.061538152 0.0048763757
0002b0 1d 6e 11 3c e3 48 e6 3c 34 02 b0 3b 21 79 d8 3c
       0.008876351 0.028110927 0.0053713564 0.026424946
0002c0 6a f8 ca 3c e1 e1 60 3c 96 8d 8e bc 96 93 66 bd
       0.024776656 0.013725729 -0.017401498 -0.056293093
0002d0 e8 7c b8 3c 8e 28 3b 3d e6 da d9 3c 57 3d 80 bd
       0.022520497 0.045692973 0.026593637 -0.062617
0002e0 3b ad 6a bd 5d 05 bb 3c 5a ff 38 3d 05 cb fd 3c
       -0.05729411 0.022829706 0.045165397 0.030980596
0002f0 a4 09 6f 3d 6f 39 de bb 08 2d 3e bd 7c 5b 8f 3c
       0.058358803 -0.006781749 -0.046429664 0.017499678
000300 50 b3 53 3c f0 c5 99 3c 26 3b 9b bc 1f 0f de 3b
       0.012921169 0.018771142 -0.018949103 0.006776705
000310 a3 01 15 bd af 50 fd 3c a9 4d de bc 16 c0 65 3c
       -0.036378514 0.030922262 -0.02713664 0.014022848
000320 1a 49 b3 3c 3f f7 33 3d 59 91 8f bc 78 cf 5c bd
       0.021885443 0.043936964 -0.017525362 -0.053908795
000330 0b 57 ce 3c 4e 1c 82 bd 5a 59 04 bd 52 94 69 3c
       0.02518799 -0.06353055 -0.032311775 0.014256554
000340 53 e1 80 bd 6d 88 17 bd cd fe 10 bc 54 30 02 3d
       -0.06292977 -0.03699534 -0.008849812 0.03178437
000350 76 5a d0 3b 65 d9 0b bd f9 58 18 bc fe d7 bc bb
       0.00635844 -0.03414287 -0.0092985565 -0.005763053
000360 aa c7 b6 3c 3c 19 29 3d d7 fb 71 bb 3d 8e 1e bd
       0.022312004 0.04128383 -0.003692379 -0.038709868
000370 41 2d dc bc bb 91 c6 3c ba d9 42 3c 24 44 52 bd
       -0.026877047 0.024239412 0.01189273 -0.051334515
000380 9e 31 6c bd cb 5d 6f bd fe 0d 71 bd 09 1a 9e bc
       -0.057664506 -0.058439057 -0.058851235 -0.019299524
000390 2c c2 68 3d 80 71 63 3d 93 40 e1 3b ab a4 c6 3c
       0.0568258 0.055528164 0.006874153 0.024248442
0003a0 f3 cb ce 3c 30 4b 21 bd a0 41 d5 bc 52 bb 29 3d
       0.025243735 -0.039378345 -0.026032269 0.04143841
0003b0 c1 6f 6b 3d 90 f0 47 bd 63 31 8a 3c 36 60 26 bd
       0.057479624 -0.048813403 0.016869253 -0.040619098
0003c0 f2 c6 13 3c 24 20 56 3c 9d 71 7c bb 4d 41 33 3c
       0.0090196 0.013069186 -0.0038519867 0.010940862
0003d0 8e c4 6e bd 08 71 4c 3d 91 64 35 3d a2 e9 b3 3c
       -0.058292918 0.049912483 0.04428536 0.02196199
0003e0 51 1d 53 3d 79 40 1f bd 89 a5 45 bd e6 d3 c6 3c
       0.05154163 -0.038879845 -0.04825357 0.024270963
0003f0 2e 86 1f bc 42 df 72 bc c5 f4 a2 3c 93 2d 4f 3d
       -0.009736581 -0.014823737 0.019892106 0.050580572

linear2.bias f4 [3]
000000 3a 19 3b 3c 2d 0c 0d 3d 93 7b 87 bc
       0.011419589 0.03443544 -0.016538417
