model/model.pth (torch, 16787 bytes, 4 tensors)

linear1.weight f4 [256, 11]
0	0xbe026e03	-0.12737279
1	0x3e43aec5	0.19109638
2	0x3cfc9c86	0.030836355
3	0xbe81b8bb	-0.2533625
4	0xbcd83108	-0.026390567
5	0xbe715bd2	-0.23570183
6	0xbd89a0ba	-0.06720109
7	0x3e099898	0.13437116
8	0xbde034b4	-0.10947552
9	0x3e63efd1	0.22259451
10	0xbe574b44	-0.21024805
11	0xbe6cd405	-0.23127754
12	0xbd642e19	-0.055708025
13	0x3e665202	0.22492221
14	0x3e856917	0.2605674
15	0xbdb8ae5a	-0.0901763
16	0xbd545683	-0.051840317
17	0x3e89c92f	0.26911303
18	0xbe80414a	-0.25049812
19	0xbdadb463	-0.08481672
20	0x3e59fc20	0.21287584
21	0xbe5d7b1b	-0.21628992
22	0xbe18ec3c	-0.14933866
23	0xbd752c58	-0.059856743
24	0xbe231c01	-0.15928651
25	0xbe4c1618	-0.19930303
26	0x3e5eccbd	0.21757789
27	0x3e905836	0.281923
28	0x3e757e35	0.23973925
29	0xbe142de5	-0.14470632
30	0xbe8087cd	-0.25103608
31	0x3be78d31	0.007066392
32	0xbe096a55	-0.13419469
33	0x3d891c18	0.066948116
34	0xbe8b4285	-0.27199188
35	0xbe907bc7	-0.28219435
36	0xbd33b49a	-0.043873407
37	0x3ddd31fe	0.10800551
38	0xbda5aab5	-0.080892004
39	0xbcff90d8	-0.031196997
40	0x3e695537	0.22786413
41	0xbe13df87	-0.14440738
42	0xbd1038ef	-0.035210546
43	0x3e232ed9	0.1593584
44	0xbe900b6a	-0.28133708
45	0x3e2f862a	0.17141023
46	0x3e84aca6	0.2591297
47	0xbe82295a	-0.25422174
48	0xbb820c40	-0.0039687455
49	0xbddc2838	-0.107498586
50	0xbe1fc8d9	-0.15603961
51	0xbdee9202	-0.116489425
52	0xbe16b6e4	-0.14718205
53	0xbe334055	-0.1750501
54	0x3c356dc0	0.01107353
55	0x3db48436	0.0881428
56	0xbe337a24	-0.17527062
57	0x3e183cc5	0.14866932
58	0x3e96a8a6	0.29425544
59	0x3e7d99a8	0.24765646
60	0xbe3e57b8	-0.1858815
61	0x3c8afa56	0.016965073
62	0xbe88c7aa	-0.26714832
63	0xbe8d512b	-0.2760099
64	0x3e6357e1	0.22201492
65	0xbe78ca01	-0.24295808
66	0x3e5d1ecc	0.2159378
67	0xbdc64630	-0.09681356
68	0x3e31ef8c	0.17376536
69	0x3e9b7996	0.303662
70	0xbdf1e6b6	-0.11811583
71	0x3ea0a897	0.31378624
72	0x3d15e44c	0.036594674
73	0x3d1653ba	0.03670094
74	0x3e62b963	0.22141032
75	0x3d9bc270	0.076054454
76	0x3e9b6909	0.30353573
77	0x3dcad7f2	0.099044695
78	0xbe0d1c4e	-0.13780329
79	0xbe50a1fe	-0.20374295
80	0x3e2ccd92	0.16875294
81	0xbd6296ab	-0.05531947
82	0xbe2f976e	-0.1714761
83	0x3e5b6b21	0.21427585
84	0x3e20fb39	0.15720834
85	0x3e9c36bd	0.30510512
86	0xbde59cc6	-0.11211543
87	0x3d0c1273	0.034197282
88	0xbe149079	-0.14508237
89	0x3db6e78b	0.08930882
90	0x3d6442ff	0.055727955
91	0xbe85ab15	-0.26107088
92	0x3e1c4f0b	0.15264527
93	0xbe533612	-0.20626095
94	0xbe90f07e	-0.2830848
95	0x3d7065be	0.05869078
96	0x3e690c4c	0.22758597
97	0x3e173190	0.14765
98	0x3e4db602	0.20088962
99	0x3cf95710	0.030437022
100	0x3e6ee8ad	0.23330946
101	0x3e764962	0.24051431
102	0xbe03e002	-0.12878421
103	0x3e12ea19	0.14347114
104	0xbe0faf9a	-0.1403183
105	0x3e46c1e9	0.19409908
106	0xbe10585d	-0.14096208
107	0x3e2ea90f	0.17056678
108	0x3e391f21	0.18078281
109	0xbe92ccef	-0.28671977
110	0xbdd1f02b	-0.102508865
111	0x3e794f14	0.24346572
112	0xbdc0675a	-0.09394713
113	0xbd301921	-0.042992715
114	0x3e0ad6a9	0.13558449
115	0xbe7ff92b	-0.24997394
116	0x3e7cb861	0.2467971
117	0x3da34e73	0.079739474
118	0x3e9be946	0.3045141
119	0xbe0a9dcf	-0.13536762
120	0x3e061fcd	0.13098069
121	0x3d7d1c53	0.06179459
122	0xbe1242f3	-0.14283352
123	0x3dffb9d5	0.124866165
124	0x3e0166b1	0.1263683
125	0xbd99b703	-0.0750561
126	0x3d9e873a	0.07740636
127	0xbd5975b5	-0.05309077
128	0x3dbde4f9	0.09272189
129	0x3db467be	0.0880885
130	0xbe648c5c	-0.22319168
131	0xbe30e504	-0.17274863
132	0xbe5b766c	-0.21431893
133	0xbe296381	-0.16541864
134	0x3df055a4	0.11735085
135	0xbe15fb2b	-0.14646594
136	0xbe7867c7	-0.24258338
137	0x3d0d00ba	0.03442452
138	0x3e3f9e89	0.1871282
139	0xbe7447ed	-0.23855563
140	0x3db54c3e	0.08852433
141	0x3e8c73a4	0.27431977
142	0x3cc68284	0.024232157
143	0xbdeebd38	-0.11657184
144	0xbe8515b3	-0.25993118
145	0x3df7f023	0.12106349
146	0xbe29a032	-0.16565016
147	0x3da3901d	0.07986472
148	0xbe0edade	-0.13950679
149	0x3d7f2634	0.062292293
150	0x3e1349f0	0.14383674
151	0x3c0a8333	0.008454132
152	0xbe0b3967	-0.13596116
153	0xbc81782e	-0.015804376
154	0x3e3b4d00	0.18291092
155	0xbb58abc0	-0.0033061355
156	0x3da5d09e	0.08096431
157	0x3db1d9bf	0.0868411
158	0xbdd90a8c	-0.10597715
159	0xbe85a39b	-0.26101384
160	0x3da86b97	0.08223646
161	0xbdbe5e65	-0.09295348
162	0x3e0ac153	0.1355031
163	0x3cb9c25a	0.022675682
164	0xbe310fa7	-0.17291127
165	0xbe31ed8d	-0.17375775
166	0x3e4f61e5	0.20252188
167	0xbe159118	-0.1460613
168	0xbe5bbed9	-0.21459521
169	0x3c1891b9	0.009312087
170	0xbd9614b4	-0.073281676
171	0xbe18c02f	-0.14917062
172	0x3e68bbdf	0.22727917
173	0x3dac7f26	0.08422689
174	0x3e98350a	0.29727966
175	0x3cbc9674	0.02302096
176	0x3e3f3be8	0.18675196
177	0x3d33feb4	0.043944076
178	0xbe466f59	-0.19378413
179	0x3e770427	0.24122678
180	0x3e250df7	0.16118608
181	0xbe7c1203	-0.24616246
182	0xbe21252e	-0.15736839
183	0x3e833dac	0.2563299
184	0x3e9693c3	0.29409608
185	0xbe87bb0e	-0.265099
186	0x3ea49a89	0.3214915
187	0x3e94f70b	0.2909473
188	0x3d53d199	0.05171356
189	0x3e983d9f	0.29734513
190	0x3da50ead	0.0805944
191	0xbe204ab5	-0.15653498
192	0x3e028cd1	0.1274903
193	0xbe54261a	-0.2071766
194	0xbd82a649	-0.063793726
195	0xbdacb40c	-0.08432779
196	0xbda81d65	-0.082087316
197	0x3e71ed57	0.23625694
198	0x3e817656	0.25285596
199	0xbe749c67	-0.23887788
200	0x3e535f09	0.20641722
201	0x3e2fdc2a	0.1717383
202	0x3dc57e5f	0.09643244
203	0xbdc10997	-0.09425657
204	0x3dffb665	0.12485961
205	0x3d1921cb	0.037385743
206	0x3e4f5d31	0.20250393
207	0x3e658fc4	0.22418123
208	0x3e302dc1	0.17204954
209	0xbd16dbd8	-0.036830753
210	0xbe25f0fd	-0.16205211
211	0x3e28d4fe	0.164875
212	0xbcc43810	-0.023952514
213	0xbe7bbe56	-0.24584326
214	0xbe01f9f7	-0.1269301
215	0xbdd487ea	-0.10377486
216	0x3e31bb42	0.1735659
217	0xbe663d6a	-0.22484365
218	0xbe2d8b16	-0.16947588
219	0xbe39af86	-0.18133363
220	0x3d82eeb9	0.06393189
221	0xbe8e37fc	-0.27777088
222	0xbe9f9a51	-0.31172422
223	0xbe30bb8d	-0.17259045
224	0x3e8cc028	0.27490354
225	0xbe838874	-0.25690043
226	0x3e43c0de	0.19116542
227	0xbd0a20cf	-0.033722695
228	0xbe698026	-0.22802791
229	0xbd9b29ef	-0.075763576
230	0x3e5cb4e0	0.21553373
231	0xbe0bd4a2	-0.13655332
232	0x3acaa804	0.001546145
233	0x3eb2b7a5	0.34905735
234	0xbde20aa9	-0.110371895
235	0xbd769988	-0.060205013
236	0x3d880733	0.06641998
237	0x3df6cd1b	0.120508395
238	0x3dad3387	0.08457094
239	0x3e8a9c45	0.2707235
240	0x3d3c13d6	0.045917355
241	0xbe5322f8	-0.20618808
242	0x3e594fe2	0.21221879
243	0x3e8968c5	0.26837745
244	0xbe22bb66	-0.158918
245	0xbd9726da	-0.07380457
246	0xbe0d3a23	-0.13791709
247	0xbc8d34c8	-0.017237082
248	0xbe4c9b7f	-0.19981192
249	0x3e1d0ae1	0.15336181
250	0x3e3c905b	0.18414442
251	0xbdb8a091	-0.090150006
252	0x3d946665	0.07246093
253	0xbe6ad4fb	-0.22932808
254	0xbe908a70	-0.2823062
255	0xbe8ed430	-0.2789626

linear1.bias f4 [256]
0	0xbc509f7f	-0.012733339
1	0xbe47bf94	-0.19506675
2	0xbd6ce6ce	-0.0578373
3	0x3e6ad367	0.22932206
4	0xbe51aa44	-0.20475107
5	0x3d493458	0.049122185
6	0x3dfb1639	0.12260098
7	0x3e151434	0.14558488
8	0xbe7424a5	-0.23842104
9	0x3e7dec9f	0.24797295
10	0xbd7a63f7	-0.06113049
11	0x3d5dd712	0.054160185
12	0xbd4813d1	-0.048847023
13	0xbbfe623d	-0.0077631758
14	0x3e084fcd	0.13311692
15	0x3e722ef7	0.23650728
16	0x3e5afda0	0.21385813
17	0x3e71ea9c	0.23624653
18	0xbe18fc2a	-0.14939943
19	0xbe4b62dd	-0.19861932
20	0x3e94ef4a	0.29088813
21	0x3dea8baf	0.11452424
22	0x3aff6067	0.0019483686
23	0xbe936b00	-0.28792572
24	0x3e5f2305	0.21790703
25	0xbe2940c3	-0.16528611
26	0xbe80b33e	-0.2513675
27	0x3d9dead7	0.07710808
28	0x3e1a27bd	0.15054221
29	0xbe9fab64	-0.31185448
30	0xbe8239d7	-0.25434753
31	0xbd86c040	-0.065796375
32	0xbe801d36	-0.25022286
33	0xbdb29e8a	-0.08721645
34	0x3d9f4227	0.077762894
35	0x3e1518fa	0.14560309
36	0xbde33f24	-0.110960275
37	0x3e27cac6	0.16385946
38	0xbe5ec73c	-0.2175569
39	0xbe35fa5c	-0.17771286
40	0xbd047f99	-0.03234825
41	0xbcf0e484	-0.02940584
42	0x3e8cff4e	0.27538532
43	0xbe3bdc91	-0.18345858
44	0x3e08411e	0.1330609
45	0xbd2e7e2e	-0.042600803
46	0x3e38104d	0.17974968
47	0xbe914c12	-0.2837835
48	0x3e9c2b78	0.30501914
49	0xbe2e7eaa	-0.17040506
50	0xbe8a9b32	-0.2707153
51	0xbe0cf1f5	-0.13764174
52	0xbe07ef73	-0.13274936
53	0x3e63a831	0.22232129
54	0x3bbf517a	0.00583857
55	0xbe87bdce	-0.26511997
56	0x3e5c5e9e	0.21520469
57	0xbd887ed2	-0.06664814
58	0xbe8e245c	-0.27762115
59	0xbd9f5fe3	-0.07781961
60	0xbd9c2667	-0.07624512
61	0xbe940808	-0.28912377
62	0x3e231c72	0.1592882
63	0x3e05342b	0.13008182
64	0x3d59a769	0.05313817
65	0xbe5c3dfe	-0.21508023
66	0x3e90cd31	0.2828155
67	0x3da0353c	0.07822654
68	0x3d504215	0.05084427
69	0x3d81bc5b	0.06334754
70	0xbe69b799	-0.22823943
71	0xbe98d77f	-0.2985191
72	0xbdc7a6c6	-0.097486064
73	0x3e80b979	0.25141504
74	0xbd916359	-0.07099027
75	0x3e265549	0.16243471
76	0x3d554497	0.052067365
77	0xbe76bea7	-0.24096166
78	0x3e8fc418	0.28079295
79	0xbda9acbe	-0.08284901
80	0x3cb73914	0.022366084
81	0xbe977d12	-0.2958761
82	0x3e83d2d3	0.25746784
83	0xbd9ad6ad	-0.075604774
84	0xbe4c20c8	-0.1993438
85	0x3e937dda	0.28806955
86	0x3c099c8c	0.00839914
87	0x3e1e1cc6	0.15440664
88	0xbe1176cb	-0.14205472
89	0x3d8bba42	0.06822635
90	0xbe69479b	-0.22781222
91	0xbcda8b80	-0.026677847
92	0x3c5070f6	0.0127222445
93	0x3c0fb75f	0.008771746
94	0xbe45a989	-0.19302954
95	0x3e8c91ac	0.2745489
96	0xbdd19112	-0.10232748
97	0x3d44b303	0.04802228
98	0x3cea7f3d	0.028625125
99	0x3db8be84	0.09020713
100	0xbe7b34ee	-0.2453191
101	0x3dd02859	0.10163946
102	0xbddc7cf4	-0.107660204
103	0x3e4faeac	0.20281476
104	0xbe47d628	-0.19515288
105	0xbe93a53a	-0.28836995
106	0xbe7f33a6	-0.24922046
107	0xbe079a8c	-0.13242549
108	0xbe6d884a	-0.23196521
109	0xbd51824f	-0.051149663
110	0x3e08e487	0.13368426
111	0xbe673863	-0.22580104
112	0x3d993f7a	0.0748281
113	0x3d32c17b	0.04364155
114	0xbe1c3024	-0.15252739
115	0x3e1cbe61	0.15306999
116	0x3de36de9	0.11104948
117	0xbd360997	-0.04444274
118	0xbe04926f	-0.12946485
119	0x3e75314f	0.23944591
120	0xbe4b7593	-0.1986907
121	0x3dfbd9f4	0.12297431
122	0x3e9712c2	0.295065
123	0xbd7a4461	-0.061100367
124	0x3e5b0a1e	0.21390578
125	0xbe157990	-0.14597154
126	0x3e01ef1c	0.12688869
127	0x3e426999	0.18985595
128	0x3e849b81	0.2589989
129	0x3e61f8d6	0.2206758
130	0x3de24c93	0.110497616
131	0xbe8e453e	-0.27787203
132	0x3e1f6e36	0.15569386
133	0x3e6e4df4	0.23271924
134	0xbdd357c8	-0.10319477
135	0xbe4db769	-0.20089497
136	0x3d9b31a7	0.0757783
137	0x3e451d28	0.19249403
138	0x3e4bc0f8	0.1989783
139	0xbc6e50e8	-0.014545657
140	0x3da82b0e	0.08211337
141	0xbe754333	-0.23951416
142	0xbe0cd590	-0.13753343
143	0x3e7b125e	0.24518725
144	0x3ad9f527	0.0016628847
145	0xbe530939	-0.20608987
146	0x3e9cd818	0.30633616
147	0x3db9da21	0.09074808
148	0x3d012cbf	0.031536814
149	0x3e49d524	0.19710213
150	0xbdb25b9b	-0.087088786
151	0x3d9fea34	0.078083426
152	0x3e70a108	0.23498929
153	0xbe8ba3f7	-0.27273533
154	0xbe42955b	-0.19002287
155	0xbe9cd3c9	-0.3063033
156	0x3e9f4aee	0.31111854
157	0x3ea877e2	0.32903963
158	0xbd3c38d4	-0.045952633
159	0xbdaf6455	-0.08564059
160	0xbe29c1ff	-0.1657791
161	0x3e56abe0	0.20964003
162	0x3d3a7a82	0.04552699
163	0x3dea3db9	0.11437554
164	0xbdfdcc4b	-0.123924814
165	0xbae9003e	-0.0017776561
166	0x3e8206b2	0.25395733
167	0x3d4f3b3f	0.05059361
168	0x3e09c8fa	0.13455573
169	0xbcbe1383	-0.023202663
170	0xbe63e4c2	-0.22255233
171	0x3e249ed6	0.16076216
172	0x3e430ec2	0.19048598
173	0x3e4d2bd5	0.20036252
174	0xbe150cf1	-0.14555718
175	0x3c15f4ee	0.009152634
176	0xbe7ad29d	-0.24494405
177	0xbe71c5e1	-0.23610641
178	0x3c6a76cb	0.014310549
179	0x3c9257b1	0.01786408
180	0x3d6c677a	0.05771587
181	0xbe455bfc	-0.1927337
182	0x3e2e5b5b	0.17027037
183	0x3cfc2c9d	0.030782992
184	0x3e11d0d0	0.14239812
185	0x3cb00809	0.021488206
186	0x3d9b6085	0.07586769
187	0x3e3af413	0.1825717
188	0xbe93d070	-0.28869963
189	0x3e98009c	0.29687965
190	0xbe8cbb6d	-0.27486745
191	0x3cf6666a	0.030078132
192	0x3e670995	0.22562249
193	0x3d1861b1	0.03720254
194	0x3e33d9b8	0.17563522
195	0x3d590f05	0.05299284
196	0xbe4ac4a4	-0.19801575
197	0xbe7028fc	-0.23453134
198	0x3e6543b2	0.22389105
199	0x3b663b85	0.0035130691
200	0xbe6cd9f3	-0.23130016
201	0xbd4e8ba5	-0.050426144
202	0xbe0803d9	-0.13282718
203	0x3d0b0f3d	0.03395008
204	0x3e8af903	0.27143106
205	0xbe4d0ce5	-0.2002445
206	0xbe1794e0	-0.14802885
207	0x3e7722e6	0.24134406
208	0x3e3f1b23	0.18662696
209	0x3d31f667	0.04344788
210	0x3dada3d6	0.08478515
211	0x3e265beb	0.16246001
212	0x3ea8d475	0.32974592
213	0xbe258173	-0.16162662
214	0xbc43ad27	-0.011943138
215	0xbdbfe450	-0.09369719
216	0x3c314ac0	0.010821044
217	0xbd639f13	-0.055571627
218	0x3e570206	0.20996866
219	0x3d628242	0.055300005
220	0xbe1fe4aa	-0.15614572
221	0xbdb63900	-0.08897591
222	0xbe362123	-0.17786078
223	0x3e09dadd	0.13462396
224	0x3d482203	0.04886056
225	0x3cc0890a	0.023502845
226	0xbe323fbb	-0.17407124
227	0xbcbb1a3d	-0.02283966
228	0x3e838387	0.25686285
229	0x3e79241a	0.24330178
230	0x3e4a82b6	0.19776425
231	0x3d871b18	0.065969646
232	0x3b88aa63	0.0041707023
233	0xbe29d4a3	-0.1658502
234	0x3c512f82	0.012767674
235	0x3d9fb8c9	0.07798917
236	0x3de3c1b5	0.11120931
237	0x3c82c179	0.015961396
238	0x3df7a0f7	0.120912485
239	0xbe4b602e	-0.19860908
240	0x3e4cc8cd	0.19998474
241	0xbe84e5c1	-0.25956538
242	0xbe36b136	-0.17841038
243	0xbe31af31	-0.17351986
244	0xbd65066d	-0.05591433
245	0x3e8bfc23	0.27340803
246	0xbe3f92b9	-0.18708314
247	0xbae7dbf0	-0.0017689448
248	0x3d9ff65f	0.078106634
249	0x3e8b76dd	0.27239123
250	0xbe1a3739	-0.15060128
251	0x3e1ae935	0.15128024
252	0xbe5c560b	-0.21517198
253	0xbd88a092	-0.06671251
254	0xbe4f2ba8	-0.20231497
255	0x3e48ebb1	0.19621159

linear2.weight f4 [3, 256]
0	0x3cb7ee1a	0.022452403
1	0x3c4f37f5	0.012647619
2	0xbd6a2398	-0.05716285
3	0x3c8717fb	0.016490927
4	0xbbd678d0	-0.0065451637
5	0xbd0bda32	-0.034143634
6	0xbd0f9ebd	-0.035063494
7	0xbd8e6a93	-0.06953921
8	0x3c2aba26	0.010420358
9	0xbaeacae4	-0.0017913249
10	0xbd24ec74	-0.04026456
11	0x3d10f3d1	0.03538877
12	0xbdb2917d	-0.08719156
13	0x3b730be1	0.0037085938
14	0xbd5b42ae	-0.053530388
15	0xbcaaea68	-0.020863727
16	0xbda68b4c	-0.081320375
17	0xbc8b5f0a	-0.017013092
18	0xbda88174	-0.08227816
19	0x3ce3aeb4	0.027793266
20	0xbce104e9	-0.027468162
21	0xbd9f8228	-0.07788497
22	0xbb016a7e	-0.0019747312
23	0xbcc8e8d1	-0.024525078
24	0xbd812fbf	-0.06307935
25	0xbd869d8d	-0.06573019
26	0x3cf9cde1	0.030493679
27	0xbc156005	-0.009117131
28	0xbb8fdcd0	-0.0043903366
29	0xbd242ab9	-0.040079806
30	0xbd87babe	-0.06627415
31	0xbcbbd03e	-0.022926446
32	0xbcd28256	-0.025696915
33	0xbd28c1c9	-0.041200433
34	0xbc50a9be	-0.012735782
35	0x3c6d3958	0.014479004
36	0xba7fab06	-0.00097529625
37	0x3d16a0ee	0.03677457
38	0xbd6ad7f8	-0.05733487
39	0x3d06039f	0.032718297
40	0x3c925da8	0.017866924
41	0xbd293c01	-0.04131699
42	0x3c87afc1	0.016563298
43	0xbc7c0a39	-0.015383297
44	0xbd8c8523	-0.06861331
45	0xbc035c88	-0.008017667
46	0xbcedcb00	-0.029027462
47	0x3cfd7464	0.030939288
48	0xbd2774b9	-0.0408828
49	0xbd4e380b	-0.050346415
50	0xbd28548e	-0.041096263
51	0x3d1d67ea	0.03842918
52	0x3da7567a	0.08170791
53	0xbca13cfa	-0.019682396
54	0xbd53f32e	-0.051745586
55	0x3d16657c	0.036717877
56	0xbc84dbd0	-0.016218096
57	0xbc14c0cd	-0.00907917
58	0x3d2ce61c	0.042211637
59	0xbd81343e	-0.063087925
60	0xbd6c377b	-0.057670098
61	0xbce357a4	-0.027751751
62	0x3d17b668	0.03703919
63	0x3b59778a	0.0033182823
64	0x3d9a4280	0.07532215
65	0xbd8ae38c	-0.06781682
66	0xbd85f94b	-0.065416895
67	0x3d23acc2	0.039959677
68	0xbd0b7930	-0.03405112
69	0xbd80c6b9	-0.06287903
70	0xbc637e64	-0.013885114
71	0xbd861ce3	-0.065484785
72	0xbd1b7d13	-0.037961077
73	0xbc8f42aa	-0.017487843
74	0x3c52302e	0.01282887
75	0xbc380b4f	-0.011233165
76	0x3c90198b	0.017590305
77	0xbd19233f	-0.03738713
78	0x3ccae82d	0.024768913
79	0xbd3cbd65	-0.04607906
80	0x3cfc9e43	0.030837184
81	0xbd2300fe	-0.039795868
82	0x3d1ac48a	0.03778509
83	0xbd0eccc1	-0.034863237
84	0xbdd0427f	-0.10168933
85	0xbaf9f3ae	-0.0019069815
86	0xbd351edd	-0.044218887
87	0xbd42b8a4	-0.04753937
88	0x3ca04bab	0.019567331
89	0xbdad05ee	-0.084483966
90	0x3cec8ef0	0.028876752
91	0x3cc0afaa	0.023521263
92	0xbd64c610	-0.05585295
93	0xbd311874	-0.04323621
94	0x3c50b03a	0.012737328
95	0x3cd5d6dd	0.026103431
96	0xbd1aaf24	-0.037764683
97	0xbd485b5b	-0.04891525
98	0xbddb5501	-0.107095726
99	0xbc25eda1	-0.010127456
100	0x3d08847b	0.03332947
101	0xbcc85e43	-0.02445901
102	0x3ad772b2	0.001643738
103	0xbd9831b0	-0.07431352
104	0x3d08ad4a	0.033368386
105	0x3d064409	0.032779727
106	0xbd61c405	-0.05511858
107	0x3caeb4de	0.021326479
108	0x3d489d2c	0.048978016
109	0xbc9e14ff	-0.019297121
110	0xbcbdc7c1	-0.02316654
111	0xbd820f33	-0.06350555
112	0xbbbfc9d7	-0.0058529186
113	0xbd335400	-0.04378128
114	0x3cfae47c	0.030626528
115	0x3ba4c450	0.005028285
116	0xbcbbc052	-0.022918854
117	0xbd1898cb	-0.03725509
118	0xbcac9398	-0.021066472
119	0x3af46be3	0.0018647875
120	0xbd0fb403	-0.035083782
121	0xbd8e0a6b	-0.06935581
122	0x3c99a80a	0.018756885
123	0x3cc89164	0.02448339
124	0x3d08586d	0.033287454
125	0x3d74dffc	0.05978392
126	0xbbf44509	-0.0074545187
127	0x3cc79dc6	0.024367224
128	0xbd8668f6	-0.065629885
129	0x3ccbf912	0.02489904
130	0xbc48a48c	-0.012246262
131	0xbd6a7179	-0.057237122
132	0x3a0edd97	0.00054498896
133	0xbd9e57a9	-0.077315636
134	0xbd31e45d	-0.043430675
135	0xbd44adaa	-0.04801718
136	0x3da1f648	0.079083025
137	0x3c22af76	0.009929528
138	0xbdada8d5	-0.08479468
139	0xbcfaf534	-0.0306345
140	0xbd344a96	-0.044016443
141	0xbcaf7d14	-0.021421947
142	0xbba059c4	-0.0048935134
143	0xbd7ecb1a	-0.06220541
144	0xbc71d95c	-0.014761295
145	0x3bf3dba7	0.007441956
146	0xbd128695	-0.03577288
147	0x3c67a81f	0.014139204
148	0x3c7f7658	0.01559218
149	0xbd51ab32	-0.051188655
150	0xbd2d7e32	-0.042356677
151	0x378f2b3e	1.7067065e-05
152	0xbd886dee	-0.066615924
153	0xbc9997e0	-0.018749177
154	0x3d0706f7	0.032965627
155	0xbc071856	-0.008245548
156	0xbd8bfd74	-0.06835452
157	0xbd509d40	-0.050931215
158	0xbdbd43dc	-0.09241459
159	0xbd5a4914	-0.05329235
160	0x3d2f88e2	0.04285515
161	0xbccfb917	-0.025356812
162	0xbcca1400	-0.02466774
163	0x3dbc76ba	0.09202333
164	0xbc9bf664	-0.019038387
165	0xbcb4f222	-0.022088114
166	0x372503d8	9.835661e-06
167	0x3ca6395d	0.020291025
168	0xbc20276f	-0.009775027
169	0xbda8f087	-0.08249002
170	0xbaf9f0c0	-0.0019068941
171	0xbc9c62a9	-0.019090014
172	0xbd9a2271	-0.075261004
173	0xbd55b6b2	-0.052176185
174	0x3b25ec08	0.0025317688
175	0x3bde9598	0.0067927353
176	0xbd1e5dd5	-0.038663704
177	0xbd53298d	-0.051553298
178	0x3c36f93a	0.011167819
179	0x38af9b6b	8.373599e-05
180	0x3be62c12	0.0070242966
181	0x3b2a2a29	0.002596507
182	0x3d5138b5	0.05107947
183	0xbd5403a1	-0.051761273
184	0xbd5085a0	-0.050908685
185	0xbbbad6c9	-0.005701874
186	0xbd9f064d	-0.07764874
187	0x3ce8537c	0.028360121
188	0xbcaaadb8	-0.020834789
189	0xbd86fad0	-0.065908074
190	0xbcb89954	-0.02253405
191	0xbd50c5f9	-0.05097005
192	0xbda4e0c8	-0.08050686
193	0xbd3baba8	-0.045818
194	0xbd0c225c	-0.034212455
195	0x3d1f0248	0.038820535
196	0xbdb3c300	-0.08777428
197	0x3cb72de0	0.022360742
198	0x3d0e9c43	0.03481699
199	0x3d47f0bb	0.048813563
200	0x3c35d48f	0.011098041
201	0xbd813d3c	-0.06310508
202	0xbbc5df66	-0.006038594
203	0xbd3cf17d	-0.04612874
204	0xbc7d26d6	-0.015451154
205	0x3bdc0bd3	0.0067152767
206	0xba6d52a4	-0.0009053147
207	0x3a202a2e	0.0006109801
208	0xbd302efd	-0.04301356
209	0x3d744fbc	0.059646353
210	0xbd918106	-0.071046874
211	0x3cdf4947	0.027256621
212	0x3cb31e71	0.021865102
213	0x3d042ef4	0.03227134
214	0xbd4efb44	-0.050532594
215	0xbbf9f239	-0.007627752
216	0x3cc096bd	0.023509378
217	0xbd39c857	-0.045357075
218	0xbc38ba5a	-0.011274898
219	0xbc0322df	-0.008003919
220	0x3ced5e2f	0.028975574
221	0xbd5b3330	-0.053515613
222	0x3d15e625	0.036596436
223	0x3cb2a0cb	0.021805188
224	0xbcfa7e8f	-0.030577926
225	0xbd9576d5	-0.07298056
226	0xbbff8d5c	-0.007798834
227	0xbd82dcda	-0.0638978
228	0xbd2a6847	-0.041603353
229	0x3cc2ad8b	0.023764392
230	0xbcb1237a	-0.021623362
231	0x3d7b0f12	0.06129367
232	0xbdd18140	-0.102297306
233	0x3b921147	0.004457626
234	0xbd247114	-0.040146902
235	0x3d39850e	0.045292906
236	0xbd0cadb0	-0.03434533
237	0xbd416cf5	-0.04722305
238	0x3ca29cd4	0.019850172
239	0x3d112c57	0.035442676
240	0xbd360066	-0.044433974
241	0xbccb4094	-0.024811067
242	0x3d11379c	0.035453424
243	0x3d2ae15a	0.04171882
244	0x3b8d1865	0.0043058866
245	0xbd184814	-0.037178114
246	0x3bc99636	0.0061519397
247	0x39a44cb3	0.00031337663
248	0x3ce4af2e	0.027915563
249	0xbd885a0a	-0.066577986
250	0x3b92232e	0.00445976
251	0xbd6d465e	-0.057928436
252	0xbd5108d0	-0.051033795
253	0xbcdf2093	-0.027237212
254	0xbd5cb448	-0.053882867
255	0xbd019127	-0.03163257

linear2.bias f4 [3]
0	0xbc7d2704	-0.015451197
1	0x3c968c04	0.018377312
2	0x3c40968b	0.011754642
