model/model.pth (torch, 16787 bytes, 4 tensors)

linear1.weight f4 [256, 11]
0.11164798 0.2503176 0.15062705 0.19379048 0.32441017 0.1413022 0.0691153 -0.21346588
-0.19318914 -0.27916905 -0.03597969 -0.10733968 -0.09915188 -0.2521832 0.10416934 0.25001693
-0.22149256 0.042158127 -0.21264128 0.009387946 -0.006520682 -0.1507781 0.07423556 0.57683104
-0.35402945 -0.066148795 0.22144242 0.1665116 0.17017117 -0.040485784 0.04678239 0.07854674
-0.1040886 0.11719287 0.38579616 0.13105479 -0.010576307 -0.13386567 -0.032450028 0.11326375
0.26131004 0.28825334 0.0064845136 0.32922012 0.09091861 0.512548 0.26155156 0.14825395
0.0503518 -0.11446235 0.16977629 -0.21326177 0.19632658 -0.21174815 0.2728851 -0.10738051
-0.13749687 -0.07024126 0.091822475 0.33513397 -0.26736578 -0.11742068 0.13794863 0.2634942
-0.33395663 -0.3796661 -0.35102913 0.028440386 0.54535306 -0.24692641 -0.15008403 -0.19989781
-0.23734498 0.092536286 0.11587589 -0.09005176 -0.053446922 0.05138036 0.49282506 -0.32827187
0.051222038 0.29312804 -0.008300299 0.036452595 0.07219332 0.1601501 0.13455255 0.17542927
-0.19448128 -0.013701335 -0.08286964 0.33498153 -0.1370333 -0.27101788 0.19229673 -0.24503422
0.05409348 -0.27181906 -0.22337401 -0.14491972 0.3252491 -0.06061912 0.23040444 -0.35228387
0.16155145 0.32721326 -0.28294986 0.394875 -0.1327526 -0.2684045 0.24788381 0.6644419
-0.16382015 -0.08111401 -0.14768201 -0.18289047 0.06097674 0.0045085843 0.033363122 0.11300292
0.21090104 0.2532226 -0.58852285 0.4383949 -0.12063846 -0.051135983 -0.10559069 -0.3290456
-0.044343825 0.21414404 0.028187258 0.23711908 -0.04086252 0.099733315 0.5168002 -0.17528035
0.21752124 -0.004515739 0.11443995 -0.032341015 0.30354106 0.34443197 0.19623888 -0.1794644
-0.20163958 -0.16457048 -0.23108846 -0.16233101 -0.2722239 0.2836477 -0.2559867 -0.07916187
-0.1269406 0.07030394 -0.10347796 0.51577395 -0.37458813 0.0643105 -0.26814696 0.32737067
0.19256812 -0.39005864 -0.17945051 0.2349238 0.15749492 0.50063777 0.38385493 -0.21232884
0.09479963 -0.35144627 -0.08858925 0.08982511 0.09220966 0.2506144 -0.005307326 0.11823242
-0.113241404 -0.26120552 0.11361283 0.25069964 0.05378923 -0.09970993 -0.23645476 -0.21283069
-0.20861848 -0.29575646 -0.13852443 0.037179697 -0.17874704 0.3000311 -0.1454673 -0.21195251
0.051446725 -0.30379614 0.015294535 0.26909292 0.075920045 -0.0015719376 -0.32095847 0.13539945
-0.13108148 -0.33496484 -0.20719443 -0.18650702 0.23940638 -0.3355696 -0.35622653 -0.2475818
0.06035504 0.35181004 -0.43365297 0.27326566 0.023067767 -0.16488561 -0.21458852 -0.07925133
0.25508207 0.33577168 0.115444146 -0.026526581 0.03753418 -0.16108736 0.040437996 -0.44210842
-0.43245882 0.17694972 -0.27053115 -0.53292173 -0.25248846 0.20920257 -0.049374457 -0.25332332
0.13623154 0.31289238 -0.029438017 0.15507793 -0.13224016 0.20195553 0.028226629 -0.21634117
-0.19890195 0.22944473 0.13023096 -0.32091972 0.13371539 0.11155461 0.08844159 -0.2638566
-0.10802311 0.17786616 -0.3470483 0.090610504 -0.033817057 0.46056193 0.10832951 -0.01842273
00000000: b2a7 e43d a129 803e fa3d 1a3e 0371 463e
00000010: 1719 a63e 86b1 103e 538c 8d3d cd96 5abe
00000020: 60d3 45be 3fef 8ebe 705f 13bd e8d4 dbbd
00000030: 2410 cbbd 281e 81be bc56 d53d 3802 803e
00000040: f2ce 62be 00ae 2c3d a3be 59be e6cf 193c
00000050: 72ab d5bb 9365 1abe d008 983d 33ab 133f
00000060: 5943 b5be 0579 87bd cdc1 623e 0482 2a3e
00000070: 5a41 2e3e 6cd4 25bd e49e 3f3d 1ddd a03d
00000080: 672c d5bd d102 f03d 1387 c53e 3a33 063e
00000090: 3f48 2dbc 1514 09be 52ea 04bd d3f6 e73d
000000a0: 6eca 853e f195 933e 0b7c d43b 8a8f a83e
000000b0: 8933 ba3d 5936 033f 16ea 853e e2cf 173e
000000c0: b03d 4e3d 3d6b eabd d6d9 2d3e 4b61 5abe
000000d0: d609 493e 82d4 58be 99b7 8b3e 50ea dbbd
000000e0: fbcb 0cbe a6da 8fbd 6c0d bc3d ae96 ab3e
000000f0: 2be4 88be 417a f0bd 6842 0d3e b6e8 863e
00000100: 5dfc aabe 9863 c2be 17ba b3be d0fb e83c
00000110: 429c 0b3f 47da 7cbe a1af 19be 03b2 4cbe
00000120: 900a 73be aa83 bd3d 5750 ed3d 0f6d b8bd
00000130: 29eb 5abd 3674 523d 9153 fc3e 4013 a8be
00000140: 33ce 513d e114 963e fafd 07bc 514f 153d
00000150: 17da 933d 63fe 233e 25c8 093e bba3 333e
00000160: 1a26 47be 907b 60bc 8fb7 a9bd b382 ab3e
00000170: 7552 0cbe dbc2 8abe 6fe9 443e 40ea 7abe
00000180: 2091 5d3d de2b 8bbe 28bc 64be d665 14be
00000190: 0d87 a63e c14b 78bd 24ef 6b3e 8d5e b4be
000001a0: be6d 253e 7f88 a73e cede 90be 0e2d ca3e
000001b0: 4cf0 07be 516c 89be 41d5 7d3e dd18 2a3f
000001c0: 78c0 27be 1a1f a6bd f439 17be a447 3bbe
000001d0: bfc2 793d bfbc 933b c5a7 083d 136e e73d
000001e0: 71f6 573e 65a6 813e 6fa9 16bf 4c75 e03e
000001f0: 4c11 f7bd f773 51bd ef3f d8bd aa78 a8be
00000200: dfa1 35bd 9348 5b3e f7e8 e63c 58cf 723e
00000210: 755f 27bd fb40 cc3d 054d 043f b17c 33be
00000220: e3bd 5e3e c4f8 93bb 7e5f ea3d 0378 04bd
00000230: bc69 9b3e 6359 b03e d8f2 483e 84c5 37be
00000240: 9b7a 4ebe 2a85 28be 74a2 6cbe 1a3a 26be
00000250: ee60 8bbe 453a 913e b010 83be 9e1f a2bd
00000260: b7fc 01be 83fb 8f3d 41ec d3bd c309 043f
00000270: 04ca bfbe 39b5 833d 8f4a 89be 219d a73e
00000280: 9430 453e c4b5 c7be e0c1 37be dd8f 703e
00000290: 5946 213e cc29 003f a288 c43e bb6c 59be
000002a0: 4f26 c23d c4f0 b3be 486e b5bd 3af6 b73d
000002b0: 6bd8 bc3d 8850 803e 14e9 adbb d723 f23d
000002c0: 1ceb e7bd bbbc 85be d8ad e83d b45b 803e
000002d0: 1852 5c3d b834 ccbd 3221 72be 4af0 59be
000002e0: 15a0 55be 646d 97be 59d9 0dbe bd49 183d
000002f0: 7709 37be ad9d 993e 61f5 14be 140a 59be
00000300: cdb9 523d 2b8b 9bbe ee95 7a3c 8cc6 893e
00000310: f87b 9b3d 7909 ceba ab54 a4be 27a6 0a3e
00000320: 393a 06be 8380 abbe c72a 54be b2fb 3ebe
00000330: f226 753e c7cf abbe 5363 b6be 1586 7dbe
00000340: d936 773d 7220 b43e c307 debe 7ae9 8b3e
00000350: 9df8 bc3c c6d7 28be 18bd 5bbe 854e a2bd
00000360: 1e9a 823e 44ea ab3e fb6d ec3d 464e d9bc
00000370: 71bd 193d 16f4 24be 50a2 253d 095c e2be
00000380: 3e6b ddbe 4f32 353e 0f83 8abe 8f6d 08bf
00000390: 2b46 81be 3339 563e df3c 4abd 98b3 81be
000003a0: 4880 0b3e 6e33 a03e ff27 f1bc c0cc 1e3e
000003b0: f769 07be 6ecd 4e3e 883b e73c 8a88 5dbe
000003c0: f4ac 4bbe 8ff3 6a3e 445b 053e 974f a4be
000003d0: b0ec 083e be76 e43d dd20 b53d 3618 87be
000003e0: 383b ddbd 8c22 363e 51b0 b1be 0092 b93d
000003f0: c183 0abd c6ce eb3e dddb dd3d 44eb 96bc

linear1.bias f4 [256]
-0.17159991 -0.27824974 0.023801172 -0.022807099 0.09466218 -0.09682417 0.01390163 0.02325346
0.014161053 -0.111288294 -0.1048386 0.018182946 -0.13833393 0.04073041 0.040327862 -0.16132092
-0.1908609 -0.14858855 0.09862979 0.124613985 0.11271116 -0.22890802 0.1705365 0.02972509
0.09728049 -0.13531141 -0.07167656 -0.12730236 0.06687524 0.15730764 0.020385727 0.09539733
0.0066964407 0.104898356 -0.124221325 -0.16410947 -0.2148315 -0.18947451 -0.062422566 -0.13112295
-0.021337843 0.01647576 -0.12954167 0.08982497 -0.064055994 0.07761532 -0.22984433 -0.15258306
-0.21887949 -4.4218963e-05 -0.00073246146 0.20971607 0.0011296375 -0.027859755 -0.20068005 -0.107172795
0.18284658 0.09219326 0.051901154 0.27294654 0.24214064 -0.112882726 0.28840688 0.1581495
0.4005431 -0.19739145 0.15294294 -0.08916001 -0.22572765 0.13733043 0.19580303 -0.057910144
-0.056559037 -0.012851425 0.010759306 -0.22267926 -0.24669099 -0.21282223 -0.13012606 0.036044754
-0.15181881 0.23842868 0.031134197 0.08430357 0.03757098 -0.0055711786 -0.042100895 0.2826369
0.037583776 0.12315423 -0.22169092 0.03760631 -0.039574932 0.13233009 -0.14912763 0.06601611
0.03816674 0.007901506 -0.18385075 -0.0077992077 0.022741124 -0.07184265 -0.07374284 0.12622692
-0.033876598 -0.13515134 -0.073965445 0.1664599 0.06595831 -0.12695411 -0.12478685 -0.09329773
-0.06941837 0.0054130917 -0.036305655 0.07720917 0.38975 0.0975799 0.18099257 -0.21485464
0.1756697 -0.012278159 -0.20197818 0.07341962 0.027647456 0.1920352 -0.025564322 -0.2476952
0.19867137 0.16229074 -0.11661168 -0.25747138 0.039475728 0.12235602 0.045396633 0.10390133
-0.1992683 -0.19931182 0.12069132 0.023707427 -0.121717066 -0.061521485 0.19839096 0.20838842
0.24738152 -0.2262661 0.100158654 -0.15593366 0.13694769 -0.033083104 0.3083929 -0.15345828
-0.09899974 -0.11527802 0.016491523 0.09250181 -0.23695327 0.3634012 -0.21064408 0.053812765
0.07332055 -0.1115118 0.22467917 -0.1701092 0.07244154 0.2485127 -0.31744608 0.044734675
0.026992477 -0.15190308 0.16226032 0.4395321 0.045794994 -0.06488441 -0.04054764 0.073926695
-0.08924562 0.0069662044 0.24562651 -0.14690807 0.048791144 0.06511413 -0.0153822275 0.16132812
-0.08200683 0.076920785 0.34174174 0.14269486 -0.08138839 -0.04132381 -0.2968806 0.107466586
0.052435152 -0.07866016 -0.109808825 -0.29704675 0.2449781 -0.0626581 0.18725133 0.051084254
0.09207907 0.25621104 0.35170925 0.17028834 -0.12475026 0.049468767 0.12084862 -0.12683415
0.15176298 -0.14116065 -0.059807926 -0.12883723 -0.10868758 -0.3838299 -0.14469665 -0.1738877
0.046756458 -0.036247976 -0.102985166 -0.16174455 0.33311012 -0.09984298 0.24435924 -0.27250013
0.12461064 0.051469482 0.116817735 -0.0735025 -0.18842617 0.06872147 -0.17862405 0.06994813
0.06813663 0.022533197 0.005384125 -0.11539249 -0.24631308 -0.16854915 0.08749269 -0.06213414
0.050209675 -0.24233182 -0.09027895 -0.3047251 0.189613 0.15758052 0.035435487 0.20489776
-0.23188679 -0.06326792 0.09491921 -0.104749896 -0.012293473 0.0692487 0.1478568 -0.27039227
00000000: e3b7 2fbe c076 8ebe adfa c23c f4d5 babc
00000010: 3fde c13d c04b c6bd aac3 633c 0a7e be3c
00000020: c303 683c 1eeb e3bd 9fb5 d6bd 67f4 943c
00000030: 69a7 0dbe eed4 263d d42e 253d 5031 25be
00000040: 0a71 43be 9927 18be 6afe c93d 9e35 ff3d
00000050: 1cd5 e63d dd66 6abe 1fa1 2e3e 0882 f33c
00000060: fe3a c73d 138f 0abe 29cb 92bd 8d5b 02be
00000070: e3f5 883d 4115 213e f8ff a63c ad5f c33d
00000080: d16d db3b f3d4 d63d c067 febd 500c 28be
00000090: cafc 5bbe 9b05 42be ceae 7fbd 1845 06be
000000a0: b3cc aebc 2cf8 863c 92a6 04be 27f6 b73d
000000b0: ca2f 83bd c8f4 9e3d 505c 6bbe bc3e 1cbe
000000c0: f221 60be c077 39b8 a802 40ba cfbf 563e
000000d0: 5810 943a 243a e4bc 127f 4dbe 697d dbbd
000000e0: 223c 3b3e d2cf bc3d 4e96 543d a6bf 8b3e
000000f0: b7f3 773e 0f2f e7bd 11aa 933e f1f1 213e
00000100: fc13 cd3e fc20 4abe 139d 1c3e 8699 b6bd
00000110: 2625 67be 59a0 0c3e 9780 483e 3033 6dbd
00000120: 73aa 67bd c98e 52bc cd47 303c 0806 64be
00000130: 909c 7cbe 12ee 59be c43f 05be aaa3 133d
00000140: 6476 1bbe a626 743e 250d ff3c 5aa7 ac3d
00000150: 07e4 193d 6f8e b6bb fd71 2cbd c9b5 903e
00000160: 72f1 193d 4938 fc3d f202 63be 1309 1a3d
00000170: 5319 22bd 8a81 073e eab4 18be 7433 873d
00000180: ba54 1c3d 5175 013c 5f43 3cbe 7f90 ffbb
00000190: 984b ba3c 3d22 93bd 7c06 97bd a141 013e
000001a0: 30c2 0abd 1d65 0abe 327b 97bd 7774 2a3e
000001b0: 2715 873d 4200 02be 3f90 ffbd e112 bfbd
000001c0: 382b 8ebd 4e60 b13b 3db5 14bd d71f 9e3d
000001d0: 508d c73e f8d7 c73d 1e56 393e db02 5cbe
000001e0: c2e2 333e 552a 49bc 5ed3 4ebe 075d 963d
000001f0: eb7c e23c e0a4 443e 456c d1bc cfa3 7dbe
00000200: 8270 4b3e 8b2f 263e 1bd2 eebd 4ad3 83be
00000210: 4db1 213d cb95 fa3d d2f1 393d 38ca d43d
00000220: fd0c 4cbe 6618 4cbe 032d f73d 1436 c23c
00000230: cc46 f9bd f4fd 7bbd 0027 4b3e c663 553e
00000240: 9551 7d3e 4db2 67be fb1f cd3d 13ad 1fbe
00000250: 043c 0c3e 2682 07bd ade5 9d3e 2b24 1dbe
00000260: 60c0 cabd e216 ecbd 3b19 873c 9771 bd3d
00000270: e1a3 72be b90f ba3e 15b3 57be c66a 5c3d
00000280: 1629 963d 4c60 e4bd 4c12 663e 1b31 2ebe
00000290: 3b5c 943d 1d7a 7e3e 4b88 a2be b53b 373d
000002a0: 541f dd3c 7b8c 1bbe 9227 263e 5a0a e13e
000002b0: 8893 3b3d 1ee2 84bd 4815 26bd e166 973d
000002c0: 68c6 b6bd c244 e43b 8485 7b3e 126f 16be
000002d0: 39d9 473d 8f5a 853d bd05 7cbc 3333 253e
000002e0: 32f3 a7bd a588 9d3d c6f8 ae3e 9a1e 123e
000002f0: f5ae a6bd 2843 29bd bc00 98be 7117 dc3d
00000300: 3ec6 563d 9418 a1bd 73e3 e0bd 8316 98be
00000310: 8adb 7a3e e452 80bd d0be 3f3e b93d 513d
00000320: f493 bc3d 182e 833e 3c13 b43e 1160 2e3e
00000330: 107d ffbd c39f 4a3d 7b7f f73d d0e0 01be
00000340: c167 1b3e 6b8c 10be 28f9 74bd e8ed 03be
00000350: 9897 debd 5a85 c4be 5c2b 14be 9e0f 32be
00000360: b383 3f3d c278 14bd e3e9 d2bd 5da0 25be
00000370: 698d aa3e 7a7a ccbd 4f39 7a3e 2385 8bbe
00000380: dd33 ff3d aad1 523d 233e ef3d 7b88 96bd
00000390: caf2 40be d8bd 8c3d 39e9 36be f740 8f3d
000003a0: 388b 8b3d 8a97 b83c 506d b03b e652 ecbd
000003b0: 7f39 7cbe 2698 2cbe 5e2f b33d 5e80 7ebd
000003c0: a9a8 4d3d d525 78be 2ce4 b8bd ee04 9cbe
000003d0: e929 423e ca5c 213e cd24 113d b8d0 513e
000003e0: bb73 6dbe 9c92 81bd 0165 c23d 1d87 d6bd
000003f0: 906a 49bc 43d2 8d3d c667 173e db70 8abe

linear2.weight f4 [3, 256]
-0.10253401 -0.043970622 0.077534035 -0.11723423 0.09929255 0.20562187 0.037111454 -0.029183231
-0.3093644 -0.32701233 0.026692716 -0.1445893 -0.019332668 0.17065991 0.24129087 -0.10714134
-0.024595894 -0.11983423 0.21750556 -0.20753801 0.24562645 0.062931195 -0.11546682 -0.078358166
0.022841144 0.1347654 0.23322588 -0.29416367 0.019122249 0.18668202 0.11404465 0.005036137
-0.10013128 -0.113396786 -0.04542599 -0.20968845 -0.12684341 -0.19657642 -0.06624718 -0.10345901
-0.18291153 -0.17329367 -0.07691375 -0.057726536 -0.46886972 0.042197976 -0.33818734 0.13190506
-0.099609815 -0.4108839 0.21056597 -0.15103883 -0.20899358 0.17504142 -0.003287602 0.0007082076
-0.00573551 0.06793309 -0.21379869 0.25531733 0.059014957 -0.29648724 0.08928804 -0.09312372
0.25432637 -0.19225512 0.20622367 -0.102261566 0.15156156 -0.08681516 0.18259054 0.03415653
-0.030519564 -0.31754678 -0.08643656 -0.12305164 -0.16057467 0.104901 -0.29366216 -0.014755376
0.17138734 0.084648654 0.03875662 -0.04224683 -0.28186706 -0.2731246 0.13795017 0.19039321
-0.09365552 -0.10814286 -0.2953124 -0.10961791 -0.2516932 -0.026797665 -0.41541436 0.038605776
-0.08861223 -0.15013725 -0.048149828 -0.09568765 -0.014345122 -0.15922669 0.2149598 0.0729626
0.21167825 0.16373245 -0.022838514 0.05772566 0.14063151 -0.0104864165 -0.21245235 0.019753084
0.18794532 -0.07176061 -0.27973568 -0.09924333 0.13838041 -0.20514385 0.009304368 0.08574508
0.095069855 -0.032377854 -0.06666567 -0.3387596 0.13568631 -0.15725309 -0.31403932 0.056021422
0.009054727 -0.049050067 -0.11309265 -0.06418935 -0.13223542 -0.17866512 0.031592675 -0.2055617
0.16415872 -0.054434665 0.059487835 -0.17473389 -0.31940824 0.16311638 0.04523196 0.24719743
0.12630966 -0.16382506 0.09857391 -0.11834771 -0.13857976 0.2841783 0.0024001892 -0.07486894
-0.0017834171 -0.2633518 -0.17303786 0.16382855 -0.16998121 0.2885406 -0.15855713 0.23867308
0.08762849 0.10189411 -0.10167073 -0.12769933 -0.48633748 -0.24648839 -0.12308649 0.2481976
-0.20168342 -0.177812 -0.017454388 0.21898067 -0.089216866 -0.0442847 0.1808982 0.010155395
-0.0015642671 0.03182784 -0.029156419 -0.23464972 -0.113660805 -0.259417 -0.18801746 0.023079589
-0.031315822 -0.24652709 0.15255576 -0.036666702 -0.0034517024 -0.25982302 -0.013208009 -0.268772
0.044337258 -0.061516386 -0.15954165 0.12610553 0.13156384 -0.08672055 0.09841157 -0.09107916
-0.106930085 0.13584618 0.12064884 -0.2210416 -0.039241496 -0.12589705 0.18080404 0.050169986
-0.13780786 -0.1955223 -0.08639573 -0.25416282 0.03069129 0.05462364 0.10391484 -0.097507104
-0.047273383 0.2035132 -0.08418866 0.056560867 0.12231563 0.091372244 0.036649354 0.105218984
0.1883844 0.025162607 -0.12923704 -0.10873078 0.087740675 -0.049640983 0.016862597 -0.09069232
-0.32927728 -0.21488172 -0.048328314 -0.11435938 -0.0011283231 0.13099083 -0.19229022 -0.077111825
-0.09628277 0.13550176 -0.16446324 -0.013094143 0.2491099 -0.11603985 0.01278367 -0.01296396
-0.16438523 0.17438185 0.28071237 -0.06784212 0.22339866 0.24252886 0.12085228 0.027871296
00000000: 5afd d1bd 8a1a 34bd 2aca 9e3d 8018 f0bd
00000010: e459 cb3d 8a8e 523e 2e02 183d ac11 efbc
00000020: 0365 9ebe 296e a7be afaa da3c 380f 14be
00000030: 8b5f 9ebc 79c1 2e3e f414 773e eb6c dbbd
00000040: 547d c9bc a66b f5bd c7b9 5e3e d884 54be
00000050: 8085 7b3e 12e2 803d de79 ecbd 3f7a a0bd
00000060: 5a1d bb3c f1ff 093e c4d2 6e3e 9f9c 96be
00000070: 43a6 9c3c 9229 3f3e 3e90 e93d 2e06 a53b
00000080: a111 cdbd 933c e8bd 9a10 3abd 92b8 56be
00000090: 3de3 01be 544b 49be 9aac 87bd 51e2 d3bd
000000a0: 294d 3bbe e573 31be f584 9dbd a972 6cbd
000000b0: b10f f0be c9d7 2c3d e426 adbe 1f12 073e
000000c0: 3b00 ccbd 605f d2be 9b9e 573e eca9 1abe
000000d0: 6a02 56be 0f3e 333e cf74 57bb 02a7 393a
000000e0: f2f0 bbbb 8120 8b3d 0bee 5abe f4b8 823e
000000f0: abb9 713d 2dcd 97be a6dc b63d a6b7 bebd
00000100: 1137 823e 87de 44be 4c2c 533e 836e d1bd
00000110: f432 1b3e 26cc b1bd 04f9 3a3e b8e7 0b3d
00000120: 2a04 fabc 7e95 a2be a705 b1bd 8002 fcbd
00000130: b06d 24be 56d6 d63d e35a 96be 88c0 71bc
00000140: 2a80 2f3e 465c ad3d 43bf 1e3d 030b 2dbd
00000150: e150 90be fdd6 8bbe cf42 0d3e 70f6 423e
00000160: 77ce bfbd 017a ddbd 3033 97be 5b7f e0bd
00000170: eedd 80be c786 dbbc 31b1 d4be 1721 1e3d
00000180: 547a b5bd 94bd 19be c138 45bd e3f7 c3bd
00000190: cd07 6bbc 520c 23be 6c1e 5c3e 6a6d 953d
000001a0: 2fc2 583e 7ba9 273e d617 bbbc be71 6c3d
000001b0: b501 103e 38cf 2bbc 1c8d 59be 38d1 a13c
000001c0: bd74 403e 3af7 92bd 8439 8fbe 1640 cbbd
000001d0: 98b3 0d3e 3b11 52be 5971 183c 1e9b af3d
000001e0: fcb3 c23d a49e 04bd 0388 88bd e671 adbe
000001f0: 5af1 0a3e f406 21be c3c9 a0be b876 653d
00000200: 475a 143c b9e8 48bd 1f9d e7bd b575 83bd
00000210: b968 07be fdf3 36be 5267 013d c47e 52be
00000220: 3919 283e e2f6 5ebd 84a9 733d 71ed 32be
00000230: 7a89 a3be fb07 273e 2645 393d 5321 7d3e
00000240: 5257 013e c2c1 27be 1ee1 c93d 4960 f2bd
00000250: dae7 0dbe d17f 913e 7e4c 1d3b e354 99bd
00000260: 8cc1 e9ba 0cd6 86be d630 31be acc2 273e
00000270: 8e0f 2ebe 98bb 933e cd5c 22be b766 743e
00000280: 9176 b33d dcad d03d be38 d0bd 9dc3 02be
00000290: 3a01 f9be 7467 7cbe c514 fcbd 8327 7e3e
000002a0: 1986 4ebe 5914 36be 81fc 8ebc 783c 603e
000002b0: 55b7 b6bd e063 35bd 613d 393e d062 263c
000002c0: 1808 cdba e95d 023d 71d9 eebc 0448 70be
000002d0: ffc6 e8bd 4ed2 84be a687 40be 6811 bd3c
000002e0: 0545 00bd 9971 7cbe 9437 1c3e d32f 16bd
000002f0: f535 62bb 8607 85be 6866 58bc 7c9c 89be
00000300: fc9a 353d 9bf8 7bbd e35e 23be cf21 013e
00000310: acb8 063e 8b9a b1bd 018c c93d b687 babd
00000320: 29fe dabd 431b 0b3e bd16 f73d bb58 62be
00000330: b1bb 20bd 28eb 00be b224 393e 0b7f 4d3d
00000340: 811d 0dbe ff36 48be 3ff0 b0bd a121 82be
00000350: 4d6c fb3c 0abd 5f3d 4ed1 d43d ceb1 c7bd
00000360: bca1 41bd c465 503e 1b6b acbd 5eac 673d
00000370: 9e80 fa3d 5f21 bb3d a21d 163d 0d7d d73d
00000380: d7e7 403e d021 ce3c b756 04be 3eae debd
00000390: 62b1 b33d 5854 4bbd 6e23 8a3c e5bc b9bd
000003a0: 0897 a8be f409 5cbe e9f3 45bd 4035 eabd
000003b0: 3ee4 93ba 7622 063e bae7 44be ceec 9dbd
000003c0: e72f c5bd f9c0 0a3e 0d69 28be d188 56bc
000003d0: aa16 7f3e 4da6 edbd 9972 513c ca66 54bc
000003e0: 9a54 28be 2891 323e 88b9 8f3e cff0 8abd
000003f0: 9ec2 643e 7c59 783e 6681 f73d 5852 e43c

linear2.bias f4 [3]
0.016994538 -0.08219757 -0.07618419
00000000: 2138 8b3c 3357 a8bd 7506 9cbd
